cluster_job_scheduling/models/decima/model.pt (torch, 95823 bytes, 40 tensors)

encoder.node_encoder.mlp_prep.0.weight f4 [32, 5]
0	0xbd101f54	-0.035186127
1	0x3e8c25c8	0.27372575
2	0xbf0c84e3	-0.5489027
3	0xbed689f8	-0.41902137
4	0xbe29ee20	-0.16594744
5	0x3e1687e4	0.14700276
6	0xbd06f5fa	-0.032949425
7	0x3ed44d11	0.41465047
8	0xbd2343a0	-0.039859414
9	0x3ddb87cb	0.1071926
10	0xbdb86b86	-0.090048835
11	0xbdeb0447	-0.11475425
12	0xbf0f4a2f	-0.5597257
13	0xbea2b3c3	-0.31777772
14	0xbe3b6479	-0.18300046
15	0x3d98b246	0.07455878
16	0x3e40d4b7	0.18831144
17	0x3e79607c	0.24353212
18	0xbebaba97	-0.36470482
19	0xbe386b6f	-0.18009733
20	0x3e6b9eea	0.2300984
21	0x3ed07b4a	0.40719062
22	0xbdd2c1c0	-0.10290861
23	0x3ea04650	0.31303644
24	0xbda3e9e7	-0.08003598
25	0x3e2c8d5b	0.16850798
26	0x3ed50540	0.41605568
27	0xbed86c18	-0.4226997
28	0xbe8c353b	-0.27384362
29	0xbda5fc61	-0.08104778
30	0xbe431846	-0.19052228
31	0x3ecf97c0	0.40545464
32	0xbeaa20a4	-0.33228028
33	0xbe8e29e9	-0.2776635
34	0xbe9b3662	-0.30314928
35	0xbec85f7b	-0.39135346
36	0xbe89228a	-0.26784164
37	0x3f141598	0.5784545
38	0x3e8a18c8	0.26972032
39	0x3e4c5c2b	0.19957034
40	0x3e2c7b29	0.16843857
41	0xbe6b496f	-0.22977231
42	0x3da35036	0.079742834
43	0xbef76041	-0.48315623
44	0xbe8f780b	-0.28021273
45	0xbebd53fd	-0.3697814
46	0x3e718058	0.23584116
47	0x3e4b8b6c	0.19877404
48	0xbe8f139f	-0.27944657
49	0xbd829123	-0.06375339
50	0x3ea17104	0.31531537
51	0x3eeea341	0.46608928
52	0x3e4b4d95	0.19853814
53	0x3d48117a	0.048844792
54	0x3ea1c100	0.3159256
55	0xbeb59ce9	-0.35471275
56	0x3d99b388	0.07504946
57	0xbeb4a759	-0.35283926
58	0xbea18af6	-0.3155133
59	0xbe7c3bbd	-0.24632163
60	0x3e91afb1	0.28454354
61	0x3e4bf5fc	0.19918054
62	0xbe34d40e	-0.17659017
63	0x3dda263b	0.10651823
64	0x3e8a90b7	0.27063534
65	0xbb0e6239	-0.0021726026
66	0xbc8c0249	-0.017090933
67	0x3e752215	0.23938783
68	0x3ea475ff	0.32121274
69	0x3ed7306a	0.42029124
70	0xbebcce89	-0.36876324
71	0xbe539dbf	-0.20665644
72	0x3e82afd4	0.2552477
73	0x3ec4f97d	0.38471594
74	0x3ebb5ca4	0.36594117
75	0x3edd5045	0.43225303
76	0x3d9b2872	0.07576074
77	0xbf0b4805	-0.5440677
78	0xbbed2787	-0.007237378
79	0xbe82bf9a	-0.25536805
80	0xbe9963a3	-0.2995883
81	0x3ed74fe1	0.4205313
82	0x3eb16acb	0.3465179
83	0xbee1846f	-0.4404635
84	0x3dd4ca10	0.10390103
85	0xbd25f59d	-0.04051744
86	0xbd8355a9	-0.06412823
87	0xbe8c6f3d	-0.27428618
88	0x3e641a49	0.22275652
89	0xbe77d893	-0.2420371
90	0x3e390b60	0.18070745
91	0x3e3f7354	0.18696338
92	0x3ebf0f7d	0.37316504
93	0x3e1ce89c	0.15323108
94	0xbedc51fb	-0.43031296
95	0xbe412aa4	-0.18863922
96	0x3e798fb8	0.2437123
97	0x3d8799ce	0.06621133
98	0xbed95aa8	-0.42451978
99	0xbe6c405b	-0.23071425
100	0x3ed4caa6	0.41560858
101	0x3eba2328	0.36354947
102	0xbe86c48b	-0.26321825
103	0xbd96dc55	-0.07366244
104	0xbec0bf94	-0.37646163
105	0xbcdd6849	-0.027027266
106	0xbe9fea64	-0.31233513
107	0xbeca7cbe	-0.39548296
108	0xbe172a6a	-0.14762273
109	0x3dbc07f3	0.09181204
110	0xbe6446c3	-0.22292618
111	0x3ea3fa52	0.32026917
112	0xbe4a315c	-0.19745392
113	0x3ebe1b19	0.3713005
114	0x3ea7ef0a	0.3279956
115	0xbe96b4f1	-0.29434922
116	0xbe1857e0	-0.14877272
117	0x3e2f0a91	0.17093875
118	0x3de2329a	0.11044808
119	0x3dcd827b	0.10034653
120	0x3e65ca61	0.22440483
121	0xbd982793	-0.07429423
122	0xbe613a39	-0.21994866
123	0x3e8cf3f4	0.2752987
124	0xbed58cbd	-0.41708937
125	0xbdf31177	-0.118685655
126	0xbe22603c	-0.15857023
127	0xbeab0e48	-0.33409333
128	0xbe4ad97d	-0.19809528
129	0xbea95f20	-0.33080387
130	0x3d8d924e	0.06912671
131	0x3d86b64d	0.0657774
132	0xbe8b837a	-0.27248746
133	0xbcce1aa0	-0.02515918
134	0x3eb27dc4	0.34861577
135	0x3cb16e8b	0.021659156
136	0x3c17a972	0.0092567075
137	0x3d7568fb	0.05991457
138	0x3dc1b3b1	0.094581015
139	0x3ea6a18f	0.32545134
140	0x3ea9fb0d	0.3319935
141	0x3e81e6ae	0.25371307
142	0x3edffb35	0.43746343
143	0xbd8be028	-0.06829864
144	0xbee1625a	-0.4402035
145	0xbe1955d6	-0.1497415
146	0x3eaf242b	0.3420728
147	0x3d0be75d	0.034156192
148	0xbe1301fa	-0.14356223
149	0xbe997559	-0.29972342
150	0xbee07402	-0.43838507
151	0xbec7d182	-0.3902703
152	0xbd491e65	-0.049101252
153	0x3e9102e2	0.28322512
154	0x3e646e7b	0.2230777
155	0xbe9969c0	-0.29963493
156	0x3e95a46a	0.29227
157	0xbeac3c61	-0.33639815
158	0xbdc51b6e	-0.096243724
159	0xbe0a3ef9	-0.13500585

encoder.node_encoder.mlp_prep.0.bias f4 [32]
0	0xbcd1a841	-0.025592925
1	0x3d306613	0.043066096
2	0x3cafe184	0.021469839
3	0x3bfeb9ee	0.0077736294
4	0xbb2e4b4d	-0.0026595176
5	0x3d16eca4	0.03684677
6	0xbcf7be7a	-0.030242193
7	0x3c8d18f8	0.01722382
8	0x3d083665	0.033255
9	0xbdb4ba25	-0.08824567
10	0x3cf985d8	0.03045933
11	0xbca5329b	-0.020165732
12	0x3d83482a	0.064102486
13	0x3c99e66b	0.01878663
14	0xbd7e2723	-0.062049042
15	0x3d6a3776	0.057181798
16	0x3d11e5bb	0.03561948
17	0x3d8d59d2	0.069018975
18	0x3abee4e3	0.0014564063
19	0x3cbbadfe	0.022910114
20	0x3d9208a2	0.07130553
21	0xbd083484	-0.033253208
22	0x3b2f26d9	0.0026726036
23	0x3cb1a5ea	0.02168556
24	0x3d5695db	0.052389007
25	0x3da2f726	0.07957296
26	0x3dc943c9	0.09827382
27	0x3d4f3b7d	0.05059384
28	0xbd16500c	-0.036697432
29	0x3d973049	0.073822565
30	0xbd23bf98	-0.03997764
31	0x3d15bed7	0.036558952

encoder.node_encoder.mlp_prep.2.weight f4 [16, 32]
0	0xbe2e0498	-0.1699394
1	0x3d661fc5	0.05618264
2	0xbe420d0e	-0.18950292
3	0xbdd4fdb6	-0.10399954
4	0xbdff1b51	-0.12456382
5	0x3c24903f	0.010044157
6	0xbe063145	-0.13104732
7	0x3d10501f	0.03523266
8	0xbcc03da3	-0.02346689
9	0x3dbe8580	0.09302807
10	0xbe0d98ab	-0.1382777
11	0xbe219d2a	-0.1578261
12	0xbde2d56d	-0.11075864
13	0x3e0d0cfb	0.13774483
14	0xbd33441e	-0.043766133
15	0x3de8c4ae	0.11365639
16	0x3d46d41d	0.04854213
17	0x3cf524b5	0.02992473
18	0x3c9af190	0.018914014
19	0xbd51155c	-0.05104576
20	0x3bc443c7	0.005989525
21	0xbd9dd62f	-0.07706868
22	0xbc1cb715	-0.0095651345
23	0x3d1acf6f	0.03779548
24	0xbe0975d8	-0.1342386
25	0xbdef904e	-0.11697446
26	0x3e0790cb	0.13238828
27	0xbe0e3d40	-0.13890553
28	0xbbaaa829	-0.0052080345
29	0x3e24c93f	0.16092394
30	0x3da08235	0.07837335
31	0xbceb742e	-0.028741922
32	0xbe30a6cf	-0.17251132
33	0x3dcd2021	0.10015894
34	0xbe0dca34	-0.13846666
35	0xbd5dc8f9	-0.05414674
36	0xbc505ea1	-0.012717874
37	0x3c00fcdd	0.007872787
38	0xbc147f3e	-0.00906354
39	0x3e0ff575	0.14058478
40	0x3c76afda	0.015056575
41	0x3e2b9cff	0.16759108
42	0x3e12dbbd	0.14341636
43	0xbdf6b882	-0.12046911
44	0x3de044b7	0.10950606
45	0xbde195d3	-0.11014905
46	0xbd8d4b93	-0.0689918
47	0x3d415236	0.047197543
48	0x3dcf739b	0.10129472
49	0x3dc79d91	0.0974685
50	0xbd75d3a7	-0.0600163
51	0xbc879cca	-0.016554255
52	0x3db79204	0.08963397
53	0xbe42fcce	-0.1904175
54	0x3e1f5c9a	0.15562668
55	0xbe182308	-0.14857113
56	0xbc30cfcf	-0.010791733
57	0xbd41190f	-0.04714304
58	0xbd8aa4b2	-0.067696944
59	0x3d284c9f	0.041088697
60	0x3e0bf3bc	0.13667196
61	0xbd5747d3	-0.05255873
62	0xbdedcb0e	-0.11610995
63	0xbd8f4e79	-0.06997389
64	0xbe78734d	-0.24262734
65	0x3e129039	0.14312829
66	0xbe269d8b	-0.16271035
67	0xbe087054	-0.133241
68	0xbdf9b9f0	-0.12193668
69	0x3ce96323	0.028489655
70	0x3d58699e	0.0528351
71	0x3e480727	0.19533978
72	0x3cf60aec	0.030034505
73	0xbd9892a3	-0.07449844
74	0xbd75c00a	-0.059997596
75	0x3b6506bd	0.0034946643
76	0x3e04c050	0.12963986
77	0x3d8a0192	0.06738581
78	0xbd5da1cd	-0.054109383
79	0xbe05956c	-0.13045281
80	0xbe3a50e4	-0.1819492
81	0x3d300d1e	0.04298126
82	0xbd9e4378	-0.077277124
83	0xbe3b0664	-0.18264157
84	0x3dfc9e85	0.12334923
85	0xbe1b6330	-0.15174556
86	0xbd022588	-0.031774074
87	0x3da54333	0.08069458
88	0x3c2c1b5e	0.010504572
89	0xbe16dfd3	-0.1473382
90	0xbe20ba4b	-0.15696065
91	0x3e18206c	0.14856118
92	0x3d1300fa	0.035889603
93	0x3df3c52b	0.11902841
94	0xbd007c11	-0.03136832
95	0x3b1f9f8b	0.002435657
96	0xbd26f3ae	-0.040759735
97	0x3d2761da	0.040864803
98	0xbe0c02be	-0.13672921
99	0x3d8b4e43	0.068020366
100	0x3dbdb755	0.092634834
101	0x3d479146	0.048722528
102	0xbd0acef5	-0.033888776
103	0xbdf10ddd	-0.11770222
104	0x3df1fc23	0.118156694
105	0xbe0cd41a	-0.13752785
106	0x3e0eaab8	0.13932312
107	0xbd8b52da	-0.06802912
108	0xbcde786e	-0.027157035
109	0x3d5decdd	0.05418097
110	0xbdbdb85f	-0.092636816
111	0x3c4335cb	0.011914681
112	0x3d68d7ca	0.056846417
113	0xbe5a0fd5	-0.21295102
114	0x3c53afcd	0.012920332
115	0x3da5a7f5	0.08088676
116	0x3d9960a5	0.074891366
117	0xbd2a1f36	-0.04153367
118	0xbdcbf131	-0.09958113
119	0xbd39ac2c	-0.04533021
120	0x39c52a52	0.000376063
121	0xbdcdd902	-0.100511566
122	0x3dfc918b	0.123324476
123	0x3e13a154	0.1441701
124	0xbde93c82	-0.11388494
125	0x3ca60524	0.020266123
126	0x3d132cd3	0.03593142
127	0x3cc824fd	0.0244317
128	0x3c322ae7	0.0108744865
129	0x3d0d9c9e	0.03457319
130	0xbe0bc6ac	-0.13650006
131	0x3b479796	0.0030455342
132	0x3e2488d2	0.16067818
133	0x3e406d04	0.18791586
134	0x3dc1f872	0.09471215
135	0x3c8208ee	0.015873399
136	0x3dab3f36	0.08361666
137	0xbdc520f3	-0.09625425
138	0xbdff1ec8	-0.12457043
139	0xbe22d94e	-0.15903208
140	0x3e491fad	0.1964099
141	0x3dfb7b4f	0.122793786
142	0xbdf5850b	-0.119882666
143	0x3da44105	0.08020214
144	0x3e083df4	0.13304883
145	0x3e18b7d6	0.14913878
146	0x3e182fe9	0.14862026
147	0x3df51114	0.11966148
148	0xbd07e0c3	-0.033173334
149	0xbd05d8a3	-0.032677304
150	0x3e24c092	0.16089085
151	0x3dcac9cf	0.09901773
152	0xbdf3a247	-0.11896186
153	0x3e15aa3f	0.14615725
154	0x3dd23d09	0.10265548
155	0x3de0b189	0.10971362
156	0xbde5af7c	-0.112151116
157	0x3d3501de	0.044191234
158	0xbd86eefa	-0.0658855
159	0x3e06264e	0.1310055
160	0xbd9a0da1	-0.07522131
161	0x3db9a2b1	0.09064234
162	0xbc0d7ead	-0.008636159
163	0x3d826f88	0.06368929
164	0xbdf8ce8d	-0.121487714
165	0x3c76f22d	0.015072388
166	0xbe18ff5a	-0.14941159
167	0x3d9ac057	0.07556217
168	0xbe192b5b	-0.14957945
169	0xbe5f335d	-0.21796937
170	0xbe3351e1	-0.17511703
171	0x3def7ae5	0.11693362
172	0x3d8cb2b5	0.06870023
173	0x3e2d9927	0.16952954
174	0x3e1fe753	0.15615587
175	0xbe2cde0b	-0.16881578
176	0xbe2fc130	-0.17163539
177	0x3cb4c75b	0.022067716
178	0xbdcb92ff	-0.09940147
179	0x3dd8776d	0.10569654
180	0xbe1741ef	-0.14771245
181	0xbde3aa74	-0.11116496
182	0xbe454ad9	-0.19266833
183	0xbda0dbc3	-0.07854416
184	0x3e3c5469	0.18391575
185	0x3e0974a5	0.13423403
186	0x3dd76a3e	0.10518311
187	0x3e07e51e	0.13270995
188	0x3e291f85	0.1651593
189	0xbd69c0c4	-0.0570686
190	0x3dd2b334	0.102880865
191	0x3df5f4d8	0.12009591
192	0x3d8dd529	0.06925423
193	0x3e39a37b	0.18128769
194	0x3d93f8f5	0.07225219
195	0x3e0c910b	0.13727205
196	0xbdc7453f	-0.097300045
197	0x3da1b5cb	0.078960024
198	0x3d232a97	0.03983554
199	0x3c29e1cf	0.010368778
200	0xbde79689	-0.11308009
201	0xbd99a37b	-0.075018845
202	0xbe2ff792	-0.17184284
203	0x3df1cf53	0.11807122
204	0x3da0cd78	0.0785169
205	0xbcf09c84	-0.029371507
206	0xbdb07b8f	-0.08617317
207	0x3ddcb371	0.10776413
208	0x3e0461a8	0.12927878
209	0x3d8401d8	0.06445664
210	0xbd900f22	-0.07034136
211	0x3e5045ff	0.20339201
212	0x3d8b026f	0.067875735
213	0xbe1190c2	-0.14215377
214	0x3e08a8bc	0.13345617
215	0x3e309ce9	0.17247356
216	0xbd3a5956	-0.045495354
217	0x3dddb214	0.10824981
218	0xbe0a15e6	-0.13484916
219	0xbd30729d	-0.043078054
220	0x3e2202d7	0.15821396
221	0x3d167f87	0.036742713
222	0xbda99bc6	-0.082816646
223	0xbd17e147	-0.037080076
224	0xbd5e54d3	-0.054280113
225	0xbc861056	-0.016365211
226	0xba8c446e	-0.0010701546
227	0x3e1d35d4	0.15352565
228	0x3da000bf	0.07812642
229	0xbd7341f5	-0.059389073
230	0x3bef3675	0.007300193
231	0x3d99877d	0.074965455
232	0x3d8b50c6	0.06802516
233	0xbe11d5d8	-0.14241731
234	0x3c65ac36	0.014018109
235	0xbe167ea3	-0.14696746
236	0xbd1930b5	-0.037399966
237	0x3dadc245	0.084843196
238	0xbdf00640	-0.11719942
239	0x3d8aeb3d	0.067831494
240	0x3e355934	0.1770981
241	0xbc82a3a3	-0.015947169
242	0xbdf1e735	-0.11811677
243	0xbda4bad8	-0.0804345
244	0x3d330d06	0.043713592
245	0xbe12d5c2	-0.14339355
246	0x3dfcac27	0.12337523
247	0xbe2c8b24	-0.16849953
248	0xbe3d3b3d	-0.18479629
249	0xbe49c92c	-0.19705647
250	0xbbd5da1e	-0.0065262457
251	0x3e10a5c2	0.14125732
252	0xbe2a2332	-0.16614988
253	0x3e15ab79	0.14616193
254	0xbdb170bd	-0.08664081
255	0x3d67d340	0.056597948

encoder.node_encoder.mlp_prep.2.bias f4 [16]
0	0x3cbed40a	0.023294467
1	0x3cc449a5	0.023960898
2	0x3cc34049	0.023834364
3	0x3d9589a5	0.07301644
4	0x3d391253	0.04518349
5	0x3c67b3a9	0.014141955
6	0x3c120123	0.008911404
7	0x3d02ecb9	0.031964038
8	0x3d3bdaf4	0.045863107
9	0x3c129217	0.008945963
10	0x3d2ea133	0.0426342
11	0xbc7d100c	-0.01544572
12	0xba5b1cb5	-0.00083584647
13	0xbcd4225d	-0.025895292
14	0x3dad931a	0.08475323
15	0x3d9018fa	0.07036014

encoder.node_encoder.mlp_prep.4.weight f4 [16, 16]
0	0x3e6d0fdb	0.2315058
1	0xbe69775e	-0.22799441
2	0xbca464ac	-0.020067535
3	0xbe526030	-0.20544505
4	0xbe3afee5	-0.18261297
5	0x3db366ef	0.087598674
6	0x3e746993	0.23868398
7	0xbe8dc9ab	-0.27692923
8	0x3e45745d	0.1928267
9	0xbde850da	-0.11343546
10	0xbc94c49b	-0.018160155
11	0x3e4d9756	0.20077261
12	0xbd08bf28	-0.033385426
13	0x3c6c6169	0.014427521
14	0xbe86698f	-0.2625241
15	0x3e1c45ea	0.15261045
16	0x3c726e35	0.014796783
17	0xbe4d4b35	-0.2004822
18	0x3e0a2980	0.13492393
19	0xbe54bb42	-0.20774558
20	0xbe5ceeba	-0.21575442
21	0x3d5b508d	0.053543616
22	0x3e454d6c	0.19267815
23	0xbdce9199	-0.10086364
24	0x3e33ff04	0.1757775
25	0x3e6e426b	0.23267524
26	0x3e85b681	0.26115802
27	0xbe0657f7	-0.13119493
28	0xbc37ad58	-0.011210762
29	0xbd7b9c5d	-0.061428417
30	0xbe773b71	-0.24143769
31	0xbd725d2e	-0.059170894
32	0x3e4de78e	0.20107862
33	0x3e63015c	0.22168487
34	0x3d1bb2d1	0.03801233
35	0x3d89484e	0.06703244
36	0xbdf2a449	-0.11847741
37	0x3e464dc9	0.1936561
38	0xbd353f29	-0.044249687
39	0xbe4b43c3	-0.19850068
40	0x3d562dfa	0.05228994
41	0x3e1daf93	0.15399007
42	0xbe280cd7	-0.16411148
43	0x3e490508	0.19630826
44	0x3d95a127	0.07306128
45	0xbe36fb4d	-0.17869301
46	0xbd975e81	-0.07391072
47	0x3e636c05	0.22209175
48	0xbe59c31b	-0.21265833
49	0xbd9af1d7	-0.075656585
50	0x3d4c7390	0.049914896
51	0xbe6756f6	-0.22591767
52	0x3e07252c	0.13197774
53	0x3debd4b3	0.115151785
54	0x3e1ab837	0.15109335
55	0xbe271d31	-0.1631973
56	0x3e82e28f	0.25563475
57	0xbe1fe5bd	-0.15614982
58	0x3e4ff0db	0.20306723
59	0xbe7b97d2	-0.24569634
60	0xbe63b627	-0.22237454
61	0x3e09a926	0.13443431
62	0x3cc4c004	0.024017341
63	0x3cd8e3f5	0.026475886
64	0xbe1bc9e8	-0.1521374
65	0xbdaef1c6	-0.085422084
66	0xbdd10013	-0.10205092
67	0xbe5f0a05	-0.21781166
68	0x3ca9d462	0.020731155
69	0x3ccd7d06	0.02508403
70	0x3d3dc213	0.04632766
71	0x3dd18750	0.10230887
72	0x3e4f73aa	0.20258966
73	0x3d8105d4	0.0629994
74	0xbe185a1e	-0.14878127
75	0xbdee617a	-0.11639686
76	0xbe2f03aa	-0.17091241
77	0xbe3bad21	-0.18327762
78	0xbca96366	-0.02067728
79	0xbbdc778b	-0.006728118
80	0x3dfc94e2	0.12333085
81	0xbe030757	-0.12795769
82	0x3e63049b	0.22169726
83	0xbe835ef7	-0.2565839
84	0xbc8511d4	-0.016243853
85	0x3e766fab	0.24066035
86	0x3e579d6c	0.21056145
87	0xbe282767	-0.16421281
88	0x3de745f8	0.11292642
89	0x3d1beaad	0.0380656
90	0xbd9232a0	-0.07138562
91	0xbdb269e8	-0.08711606
92	0x3da9f216	0.08298127
93	0xbe32f5db	-0.17476599
94	0x3cd72c31	0.02626619
95	0x3d845193	0.064608715
96	0xbdf48598	-0.119395435
97	0x3e55be2c	0.20873326
98	0xbd821958	-0.0635249
99	0x3e04e899	0.12979354
100	0x3e86bec4	0.26317418
101	0xbdc787a6	-0.0974267
102	0x3e1ca5a2	0.15297559
103	0xbd2d5cf5	-0.04232498
104	0xbd982eac	-0.07430777
105	0xbd3c1486	-0.04591801
106	0xbdaab4f8	-0.08335298
107	0xbdbaefb4	-0.09127751
108	0x3d59c3d3	0.05316527
109	0xbbdf72cf	-0.006819106
110	0x3e41ee93	0.18938665
111	0xba01a691	-0.000494578
112	0xbc80806d	-0.015686238
113	0xbd92665a	-0.07148428
114	0xbe88a39d	-0.26687327
115	0x3e0db700	0.1383934
116	0x3d671aae	0.056421928
117	0xbe08a69f	-0.13344811
118	0xbd931139	-0.07181019
119	0x3dd0d2ed	0.10196481
120	0xbdbaf6be	-0.091290936
121	0x3e199b2f	0.15000604
122	0xbda29be2	-0.079398885
123	0x3dc36bdb	0.09542056
124	0x3dc5840d	0.09644327
125	0xbd9e43b4	-0.07727757
126	0x3e1ccd87	0.15312777
127	0x3e7eea27	0.2489401
128	0x3d4fb7de	0.05071246
129	0x3c1f9946	0.009741133
130	0x3d942f2b	0.07235559
131	0x3e17a8fd	0.14810558
132	0xbe24b3e9	-0.16084255
133	0xbdc26109	-0.09491164
134	0x3dc4fe67	0.09618836
135	0xbe84d2eb	-0.25942168
136	0x3d93d5f1	0.072185405
137	0xbde263e5	-0.110542096
138	0x3e91e7ea	0.2849725
139	0xbe717f93	-0.23583822
140	0x3e2254a9	0.15852608
141	0x3e82aae0	0.25520992
142	0xbc2a15ca	-0.0103811715
143	0xbdf95f51	-0.12176383
144	0x3e83d2c7	0.25746748
145	0xbe18edb2	-0.14934424
146	0x3c604b07	0.013689763
147	0xbe1736c5	-0.14766987
148	0xbdab7f02	-0.08373834
149	0x3d9584b7	0.07300704
150	0xbb440a0d	-0.0029913217
151	0xbdc12d6f	-0.09432494
152	0xbe665a11	-0.22495295
153	0x3a15ee17	0.0005719377
154	0x3d8a28ac	0.06746039
155	0x3d22a928	0.0397121
156	0x3e46d212	0.19416073
157	0x3e801094	0.25012648
158	0xbe5c9199	-0.21539916
159	0xbde34e31	-0.11098898
160	0xbd954064	-0.07287672
161	0xbe7cf081	-0.2470112
162	0xbe1bb08d	-0.15204068
163	0x3e5513e2	0.20808366
164	0x3e0240db	0.12720053
165	0x3e1ee4d0	0.15516973
166	0x3e1ddc40	0.1541605
167	0xbe7403f6	-0.23829636
168	0x3dc91ff0	0.09820545
169	0x3e735914	0.2376445
170	0xbd274fef	-0.040847715
171	0x3e57e6a1	0.21084072
172	0x3d8c6f63	0.06857183
173	0x3e316c49	0.17326464
174	0xbe1a0c47	-0.15043746
175	0x3da8ec29	0.08248169
176	0xbe4a4516	-0.19752917
177	0xbc979e69	-0.018508153
178	0x3db41ff0	0.08795154
179	0x3dacddbd	0.08440731
180	0x3e4550ca	0.192691
181	0x3e858518	0.26078105
182	0x3e5fac11	0.21842982
183	0x3e145a9c	0.1448769
184	0x3de3fe2e	0.11132465
185	0xbc6116d6	-0.013738355
186	0xbe839ef6	-0.25707215
187	0xbd88b53c	-0.06675193
188	0xbc017460	-0.007901281
189	0xbe044fc0	-0.12921047
190	0x3dc12c15	0.09432236
191	0x3dc0ec91	0.094201215
192	0x3d396566	0.045262717
193	0x3d5ccc3c	0.05390571
194	0x3e809f39	0.25121477
195	0x3d9d6905	0.076860465
196	0xbe513d85	-0.20433624
197	0xbe2a86ce	-0.16652986
198	0x3d8e5c2f	0.069511764
199	0x3d32e3a8	0.04367414
200	0x3e156f30	0.14593196
201	0xbe779192	-0.24176624
202	0xbe5af49d	-0.21382375
203	0x3e26100d	0.1621706
204	0x3e2d9c0d	0.1695406
205	0xbe4f7f47	-0.20263396
206	0x3dd7af7b	0.10531517
207	0xbe5bc310	-0.21461129
208	0x3e621c8b	0.22081201
209	0x3d569e83	0.052397262
210	0x3e91cded	0.2847742
211	0xbe8f0a4c	-0.27937543
212	0xbe9123a6	-0.2834751
213	0x3e4743bc	0.19459432
214	0x3e6a460b	0.22878282
215	0x3dc7b360	0.0975101
216	0x3e82c91e	0.25544065
217	0xbe520572	-0.2050989
218	0x3e998162	0.29981524
219	0xbe802e24	-0.25035203
220	0x3d7a74fb	0.061146718
221	0xbe2c462c	-0.16823643
222	0xbe293289	-0.16523184
223	0xbcb74564	-0.022371955
224	0xbdc58914	-0.09645286
225	0xbd080ec7	-0.033217218
226	0xbe80c65b	-0.25151333
227	0xbe7c41e7	-0.24634515
228	0x3e098fa4	0.13433701
229	0xbdcf2bbb	-0.10115763
230	0xbe56c025	-0.20971735
231	0xbd9447a1	-0.07240225
232	0xbe80abc9	-0.25131062
233	0xbe2dbcad	-0.16966505
234	0x3c94adcb	0.018149277
235	0x3e36a969	0.17838062
236	0x3d8c7f4d	0.06860218
237	0xbdf6aeeb	-0.12045082
238	0x3dfa1ddb	0.12212726
239	0x3d562f9b	0.052291494
240	0xbe047457	-0.12935005
241	0x3d29363d	0.04131149
242	0x3e93fa94	0.28902113
243	0xbe864d0d	-0.2623066
244	0xbe93330c	-0.28749883
245	0x3d9558ef	0.07292353
246	0x3e4eda02	0.20200351
247	0xbe42a378	-0.19007671
248	0x3ddaac0f	0.10677349
249	0x3e46b31e	0.19404265
250	0x3e438cbc	0.19096655
251	0x3d47d42f	0.04878634
252	0x3e862b99	0.26205137
253	0x3e34fdfa	0.1767501
254	0xbe4bf9f1	-0.19919564
255	0xbd50f567	-0.051015284

encoder.node_encoder.mlp_prep.4.bias f4 [16]
0	0x3cc2c8ad	0.02377733
1	0x3abefd64	0.0014571366
2	0x3b69553f	0.003560379
3	0x3c2e1c2c	0.010626834
4	0x3cbccb54	0.023046173
5	0x3d0f0ccf	0.034924325
6	0x3c283a32	0.010267781
7	0x3c7f1164	0.015568111
8	0xbcc1db99	-0.023664283
9	0xbd5a7423	-0.053333413
10	0xbb837e84	-0.0040128846
11	0x3ce0f884	0.027462251
12	0xbc99769b	-0.018733313
13	0x3b5e496f	0.0033918282
14	0x3d2b4da0	0.041822076
15	0xb993182e	-0.0002805604

encoder.node_encoder.mlp_msg.0.weight f4 [32, 16]
0	0x3cd25c86	0.025678884
1	0xbd3971f9	-0.04527471
2	0x3e3ab29a	0.18232194
3	0x3b7eea2c	0.0038896902
4	0x3d553c8b	0.05205969
5	0xbdbd8a51	-0.092548974
6	0xbbc6c822	-0.006066338
7	0x3b03f949	0.00201376
8	0xbccd0f78	-0.02503179
9	0xbe5e48f7	-0.21707521
10	0xbcbe1f34	-0.023208238
11	0xbe82acb3	-0.25522384
12	0xbc4bb7ec	-0.012433987
13	0x3dd6e3e6	0.10492687
14	0xbe022c23	-0.1271215
15	0xbe31df0e	-0.17370245
16	0xbd828a0c	-0.063739866
17	0xbdd06b3d	-0.10176704
18	0x3da75256	0.08170001
19	0x3c15f834	0.0091534145
20	0x3de28ce0	0.11062026
21	0xbe04ae4d	-0.12957115
22	0xbc355ad4	-0.011069018
23	0x3e5ca54b	0.2154743
24	0x3df44a47	0.1192823
25	0x3ce3b0c0	0.027794242
26	0xbdb9cd96	-0.090724155
27	0x3e0c02a2	0.1367288
28	0x3e063a2c	0.13108128
29	0xbe4ebfb2	-0.20190313
30	0xbde24ebc	-0.11050174
31	0x3e0b49a2	0.13602307
32	0xbd22d499	-0.03975353
33	0xbe8065f2	-0.25077778
34	0xbe3ca599	-0.18422545
35	0x3de91fa5	0.11382989
36	0xbd72d0e5	-0.05928125
37	0x3dd56b66	0.10420875
38	0x3e60d7df	0.21957348
39	0x3d23b6bf	0.039969202
40	0xbca21f03	-0.019790178
41	0xbe041e20	-0.12902117
42	0xbd790e54	-0.06080468
43	0x3c99f21a	0.0187922
44	0xbe2caf33	-0.16863708
45	0xbd965acf	-0.07341539
46	0xbe1c4fdd	-0.1526484
47	0x3ddb15f5	0.10697547
48	0xbe1e1e9c	-0.15441364
49	0x3e60ebea	0.21964994
50	0xbda0f6ba	-0.07859559
51	0xbe022039	-0.12707604
52	0x3e0617e6	0.13095054
53	0x3d108fd2	0.035293408
54	0x3e278841	0.1636057
55	0x3dbe251f	0.09284424
56	0xbe6d01ab	-0.23145168
57	0x3e20cb42	0.15702537
58	0xbd5e8c75	-0.05433317
59	0xbdf2790e	-0.118394956
60	0x3deb9c37	0.11504405
61	0x3e3a1607	0.18172465
62	0xbe8e5f39	-0.27807024
63	0xbbff1039	-0.0077839163
64	0x3e2c723f	0.16840456
65	0x3deb8eca	0.11501844
66	0x3e559b6f	0.20860074
67	0xbd90d589	-0.070719786
68	0xbdef501b	-0.11685201
69	0x3e5e695d	0.2171988
70	0x3df29162	0.11844136
71	0x3e910dd2	0.28330857
72	0xbdffdd7d	-0.124934174
73	0xbe4002b3	-0.1875103
74	0xbd6898d8	-0.05678639
75	0xbe743df1	-0.23851754
76	0x3dbdfe13	0.092769764
77	0x3e0894a7	0.13337956
78	0x3dbf4039	0.093384214
79	0xbd247074	-0.040146306
80	0x3e02f149	0.12787355
81	0xbe1520a0	-0.14563227
82	0x3e4cbb41	0.19993307
83	0xbe7494e9	-0.2388493
84	0xbe4ed1ae	-0.20197174
85	0xbdae6f02	-0.08517267
86	0x3e4e4ffd	0.201477
87	0x3bceab55	0.0063070455
88	0x3dc092e0	0.09403014
89	0xbe639dc1	-0.22228147
90	0x3d378457	0.044803943
91	0xbd47e0aa	-0.04879824
92	0x3dfc62f0	0.12323558
93	0x3e42c3c7	0.19019996
94	0x3e16eeab	0.14739482
95	0xbd56320f	-0.052293833
96	0xbb95e19a	-0.004574013
97	0xbe08e93c	-0.13370222
98	0xbe1e6b35	-0.15470584
99	0x3e5657b6	0.20931897
100	0xbca4170a	-0.020030517
101	0x3dfa190b	0.12211808
102	0xbdb66842	-0.08906604
103	0xbd83d1ec	-0.06436524
104	0x3b867123	0.0041028424
105	0xbe994bda	-0.29940683
106	0xbdaeb747	-0.08531051
107	0xbd80dc7c	-0.06292054
108	0xbbbf79e5	-0.0058433884
109	0xbd492220	-0.04910481
110	0x3e8794e3	0.2648078
111	0x3df6eb8d	0.120566465
112	0xbe289c0f	-0.16465782
113	0x3e1ad411	0.1511996
114	0xbe5766a1	-0.21035244
115	0xbe478ebe	-0.19488046
116	0x3de3a776	0.11115925
117	0xba6a5407	-0.00089389127
118	0xbdf9f4e4	-0.12204912
119	0xbe48d5c4	-0.19612795
120	0xbdd098f9	-0.10185427
121	0x3d43e372	0.04782433
122	0xbe891d99	-0.26780394
123	0xbe8e0c99	-0.27743986
124	0x3d8a052c	0.06739268
125	0xbe4ccc0e	-0.19999716
126	0xbe21c41c	-0.15797466
127	0xbdec9a06	-0.11552815
128	0xbd1b2adc	-0.03788267
129	0xbe4aa7a3	-0.19790511
130	0xbe593999	-0.21213378
131	0x3d754d73	0.059888314
132	0xbe3da675	-0.1852053
133	0xbd171c7d	-0.036892403
134	0xbe226f43	-0.15862755
135	0xbe1faeb0	-0.15593982
136	0x3dca00fc	0.09863469
137	0xbe75d3f6	-0.24006638
138	0xbe82aab7	-0.2552087
139	0x3e014ca1	0.12626888
140	0x3d6e2d8c	0.058148906
141	0x3e61941f	0.2202916
142	0xbb66ad55	-0.0035198529
143	0xbe18c58b	-0.14919107
144	0xbd642de9	-0.055707846
145	0x3a6ef9d4	0.0009116207
146	0x3e2b5913	0.16733198
147	0xbe69b296	-0.22822031
148	0x3c8da5bd	0.017290944
149	0x3d86c239	0.06580014
150	0xbde36ebf	-0.111051075
151	0xbd99934a	-0.07498796
152	0x3de7ddb4	0.113215834
153	0xbe997b82	-0.2997704
154	0xbb929fc5	-0.0044746124
155	0xbe4fda57	-0.20298134
156	0x3e056fc1	0.13030912
157	0xbe709d56	-0.23497519
158	0x3e5feb12	0.21867016
159	0xbe91825b	-0.28419766
160	0xbe56c503	-0.20973592
161	0xbccb53c2	-0.024820212
162	0x3e70a599	0.2350067
163	0xbe72ed06	-0.2372323
164	0xbe19e751	-0.15029646
165	0x3e813c23	0.25241193
166	0xbd50c52a	-0.05096928
167	0x3de89885	0.11357216
168	0xbe8030e5	-0.25037304
169	0xbcadb2cc	-0.021203421
170	0xbd6dd34a	-0.05806283
171	0x3e6a323c	0.22870725
172	0x3d934906	0.071916625
173	0xbe4ce2bd	-0.20008369
174	0xbc9a97a4	-0.018871136
175	0x3d1d0c8e	0.03834205
176	0xbdc5c102	-0.09655954
177	0xbe00dbe5	-0.12583883
178	0xbceea99e	-0.029133614
179	0x3e399b58	0.18125665
180	0xbe5cbb4a	-0.2155582
181	0xbe32073c	-0.17385572
182	0xbdb7489d	-0.08949397
183	0xbd174c4d	-0.036938
184	0x3e0bcb1c	0.13651699
185	0x3d2b72f7	0.041857686
186	0xbc851104	-0.016243465
187	0xbe3f7e24	-0.18700463
188	0x3c3638ae	0.011121912
189	0xbd9b49b4	-0.07582417
190	0x3e1e27c6	0.1544486
191	0xbe4fc8f5	-0.20291503
192	0xbe3b76b1	-0.18306996
193	0xbe669236	-0.22516713
194	0xbda0bafe	-0.07848166
195	0x3e4052be	0.18781564
196	0x3e773394	0.24140769
197	0xbe75485c	-0.23953384
198	0x3cd2300e	0.02565768
199	0x3e3faa0e	0.18717214
200	0x3da22859	0.07917852
201	0x3e09f833	0.13473587
202	0xbda6f296	-0.08151738
203	0xbe1ab39c	-0.15107578
204	0x3e1e13c2	0.15437225
205	0xbe035c40	-0.1282816
206	0x3e5a990c	0.21347445
207	0xbdec18e9	-0.11528189
208	0x3dda2719	0.106519885
209	0x3e4eabcf	0.20182727
210	0x3e826df1	0.25474504
211	0xbe81d6f7	-0.25359318
212	0xbe460e67	-0.19341432
213	0xbda95f16	-0.08270089
214	0xbe2b4fff	-0.16729735
215	0x3e806bd0	0.25082254
216	0xbd633310	-0.05546862
217	0xbdfc3872	-0.123154536
218	0xbd75bee6	-0.059996508
219	0xbe06b6f6	-0.13155732
220	0x3d9154c9	0.070962496
221	0xbe7a54bd	-0.24446388
222	0xbe831346	-0.25600642
223	0xbe5f6293	-0.21814947
224	0x3e0ae94a	0.13565555
225	0x3e3f221a	0.18665352
226	0xbe3a4701	-0.18191148
227	0x3db366dd	0.08759854
228	0x3e5489cb	0.20755689
229	0x3d2d0447	0.042240407
230	0xbda2644f	-0.079292886
231	0xbbfef8eb	-0.007781138
232	0x3d192dd8	0.037397236
233	0x3d9ee201	0.077579506
234	0xbe6b5f1b	-0.22985499
235	0x3da859d5	0.08220259
236	0x3e1320f3	0.14368038
237	0xbddc1ecf	-0.10748064
238	0x3e784ecb	0.24248807
239	0x3e78c751	0.24294783
240	0xbdc345e4	-0.09534815
241	0xbdca6b70	-0.09883773
242	0x3e1bbf5d	0.15209718
243	0xbe658155	-0.22412618
244	0x3d8b8219	0.068119235
245	0x3da94c64	0.082665235
246	0x3e1a440d	0.15065022
247	0xbe550b0c	-0.20804995
248	0xbe777df4	-0.24169141
249	0x3e29494f	0.16531871
250	0x3e1999fb	0.15000145
251	0xbe5ec211	-0.21753718
252	0xbe2ebcac	-0.1706416
253	0xbe80feb1	-0.25194314
254	0xbe599a8a	-0.21250358
255	0xbda0b99b	-0.078479014

encoder.node_encoder.mlp_msg.0.bias f4 [32]
0	0x3d1c9078	0.038223714
1	0xbc3b7988	-0.0114425495
2	0x3b336e0a	0.002737882
3	0xb8763a53	-5.870529e-05
4	0x3cf1aa18	0.029500052
5	0x3b9974f3	0.004683131
6	0xbca3c98b	-0.019993564
7	0x3cebddb9	0.028792249
8	0x3c48c2c7	0.01225347
9	0x3c51d31a	0.012806678
10	0xbc1e41a4	-0.009659205
11	0x3ba0079e	0.0048837205
12	0x3cd5301f	0.026023922
13	0xbbae3b8c	-0.005317157
14	0x3d2298a5	0.039696354
15	0xbc352b71	-0.0110577205
16	0x3c88861c	0.01666551
17	0x3da1c4d7	0.07898872
18	0x3999816d	0.00029278864
19	0xbd22ad34	-0.03971596
20	0xbd2c31cf	-0.04203969
21	0xbab33e85	-0.0013675248
22	0xbd1b9990	-0.037988245
23	0xbd4d3770	-0.050101697
24	0xbca5a1eb	-0.02021881
25	0x3d892593	0.0669662
26	0x3c70ff06	0.01470924
27	0x3b03455c	0.0020030355
28	0x3d779fb5	0.060455043
29	0x3c97f02c	0.01854714
30	0xbc9eb164	-0.019371696
31	0x3d4e278f	0.050330695

encoder.node_encoder.mlp_msg.2.weight f4 [16, 32]
0	0xbbd43239	-0.0064757136
1	0x3d5d5013	0.054031443
2	0x3db367f4	0.08760062
3	0xbc8bc756	-0.017062824
4	0x3e1095ab	0.14119594
5	0xbe0fd1fc	-0.14044946
6	0x3dc0b5db	0.09409686
7	0x3e4bfbb4	0.19920236
8	0xbb969a5d	-0.0045960383
9	0x3e2c6648	0.16835892
10	0xbba452f8	-0.0050147735
11	0xbdc34804	-0.0953522
12	0xbd9219aa	-0.07133801
13	0x3d463d26	0.04839816
14	0xbdbea2ec	-0.09308419
15	0x3cbda031	0.023147674
16	0x3e64c876	0.22342095
17	0x3d8d8367	0.06909829
18	0x3ca8b338	0.02059327
19	0x3d0a7862	0.033806212
20	0xbdcde846	-0.10054068
21	0xbe42d4d7	-0.19026504
22	0xbe1cb760	-0.15304327
23	0xbe062b69	-0.13102497
24	0xbcce1be5	-0.025159786
25	0x3d9508da	0.07277079
26	0xbd450f8a	-0.048110522
27	0xbe4691fe	-0.19391629
28	0x3e122a78	0.14274013
29	0xbe17b251	-0.14814116
30	0xbd587f43	-0.05285574
31	0xbdb8c6d3	-0.09022298
32	0xbe3c635e	-0.1839728
33	0x3db21031	0.086944945
34	0xbe21f4b3	-0.15816002
35	0xbdc1172a	-0.09428246
36	0x3e12ed34	0.14348298
37	0xbd91b50f	-0.07114612
38	0xbddfd234	-0.10928765
39	0xbdfee45e	-0.12445901
40	0x3cff46b5	0.031161645
41	0xbe44580d	-0.19174214
42	0x3d0c4fa1	0.034255628
43	0x3d0e8a1f	0.03479969
44	0xbd68f41a	-0.05687342
45	0x3d167a1f	0.036737558
46	0xbe4a9924	-0.19784981
47	0x3df4b181	0.11947919
48	0x3d1c23f5	0.03812023
49	0xbda45c64	-0.080254346
50	0xbe465b09	-0.19370665
51	0x3dc73560	0.09726977
52	0x3dee9b1f	0.11650681
53	0x3b07cf8f	0.002072308
54	0x3df873f3	0.121314906
55	0x3d930fb3	0.07180729
56	0xbd3c0059	-0.04589877
57	0xbde36d9d	-0.111048914
58	0x3e1229bf	0.14273737
59	0x3c229ffa	0.009925837
60	0xbe543f1c	-0.207272
61	0xbd540d55	-0.051770527
62	0x3dcf61f3	0.10126104
63	0xbe1ef3dd	-0.15522714
64	0xbe2485d0	-0.1606667
65	0x3e304815	0.17214997
66	0x3de2b426	0.11069517
67	0xbc34248b	-0.010995041
68	0x3c71a6cc	0.01474924
69	0x3bb5c244	0.00554684
70	0x3b2773c0	0.002555117
71	0xbd463f74	-0.048400357
72	0xbe1077d3	-0.1410821
73	0x3b8be948	0.0042697527
74	0x3cb2bc62	0.021818344
75	0xbb0f1e37	-0.0021838078
76	0xbd9d398a	-0.0767699
77	0x3d4e4fc3	0.050369035
78	0xbe354112	-0.17700604
79	0x3da8d936	0.08244555
80	0x3d7c584c	0.061607644
81	0xbd91d3a3	-0.071204446
82	0xbe1c0aa5	-0.15238436
83	0x3cabf901	0.020992758
84	0x3c0af705	0.008481746
85	0xbddfa7f2	-0.10920705
86	0xbdaefa13	-0.085437916
87	0x3e1a3f78	0.15063274
88	0x3e21ffb8	0.15820205
89	0x3cfc2b9b	0.030782511
90	0x3dfffc67	0.12499314
91	0x3d8c1d9e	0.068415865
92	0x3d8bba0a	0.068225935
93	0x3db7e8a7	0.08979922
94	0xbcbdb67b	-0.023158303
95	0xbda7d1f6	-0.08194344
96	0x3e6d0d55	0.23149617
97	0x3d1bf1e3	0.038072478
98	0xbd9b0dfc	-0.07571027
99	0xbe2d80c6	-0.16943654
100	0x3dc738b8	0.09727615
101	0x3e07dca6	0.13267764
102	0x3e5aa7f9	0.21353139
103	0x3dcc9067	0.0998848
104	0x3e54ed50	0.20793653
105	0xbdb489b5	-0.08815328
106	0xbe0fc166	-0.1403862
107	0xbdc96b5d	-0.09834931
108	0x3e58076a	0.21096578
109	0x3a3b6e92	0.000714996
110	0xbde75d8f	-0.11297142
111	0x3ccc392c	0.024929605
112	0x3d21efff	0.03953552
113	0xbd82365a	-0.06358023
114	0x3e19c0ae	0.15014908
115	0xba774c13	-0.0009433638
116	0xbdbbdaec	-0.091726154
117	0xbe4599e2	-0.19296983
118	0x3b8077f7	0.003920551
119	0x3e0e3ac3	0.13889603
120	0xbd6f202f	-0.058380302
121	0x3bfe6687	0.007763687
122	0x3e22bdf8	0.1589278
123	0xbce31a31	-0.02772245
124	0xbd82e9f0	-0.06392276
125	0xbe29ced1	-0.165828
126	0xbbed1000	-0.0072345734
127	0x3e5e4c96	0.21708903
128	0x3d0a3cd6	0.033749424
129	0x3dca7e67	0.098873906
130	0xbdd33658	-0.103130996
131	0x3e395ab5	0.18101008
132	0x3e25119c	0.16119999
133	0x3d3f5b0d	0.046717692
134	0x3dba759f	0.09104466
135	0x3e015a55	0.12632115
136	0xbdaf46de	-0.08558439
137	0x3da704d3	0.08155217
138	0x3d97908e	0.074006185
139	0xbc85c3b2	-0.016328666
140	0x3e381777	0.17977701
141	0xbd39672c	-0.045264408
142	0xbe20de2c	-0.15709752
143	0xbdca58df	-0.09880232
144	0xbe002016	-0.1251224
145	0x3e5281be	0.20557305
146	0xbd2621a0	-0.04055941
147	0xbe01697e	-0.12637898
148	0xbc412ee0	-0.011790961
149	0xbe19be86	-0.15014085
150	0xbdabd669	-0.08390505
151	0x3d5598e3	0.052147757
152	0xbe344117	-0.17602955
153	0x3e381983	0.17978482
154	0x3e3b17e5	0.18270834
155	0x3b859c6b	0.0040774844
156	0x3e231195	0.15924676
157	0xbda0210d	-0.07818804
158	0x3e1cc9d7	0.15311371
159	0x3e921195	0.2852904
160	0xbd04153d	-0.032246817
161	0x3e3022e1	0.17200805
162	0xbe1fe638	-0.15615165
163	0x3bd65471	0.006540828
164	0x3ceddbb0	0.02903542
165	0xbe01e4dc	-0.12684959
166	0x3d8efec2	0.06982185
167	0xbe08e897	-0.13369976
168	0xbdbbb6d2	-0.091657296
169	0xbe4df840	-0.20114231
170	0x3dad7c0f	0.08470928
171	0xbe25bf50	-0.16186261
172	0xbd8e91ad	-0.06961379
173	0x3db18cde	0.086694464
174	0x3dba6698	0.091015995
175	0x3dae95af	0.08524644
176	0xbdc94ca6	-0.09829073
177	0xbe0e935d	-0.13923402
178	0x3d840b17	0.06447428
179	0x3d7c563d	0.06160568
180	0x3e21c249	0.1579677
181	0x3dd169b2	0.10225238
182	0x3e2d985c	0.16952652
183	0xbe019aa3	-0.12656645
184	0x3e3e71db	0.1859812
185	0xbe394a53	-0.18094759
186	0xbdab14e0	-0.08353591
187	0x3c97ea84	0.018544443
188	0xbdc58c7c	-0.09645936
189	0xbc184973	-0.009294855
190	0x3e2bcdb8	0.16777694
191	0xbe539a74	-0.20664388
192	0x3cc264d4	0.02372972
193	0xbdfe4128	-0.12414771
194	0x3ca9d6a8	0.020732239
195	0x3e23748a	0.15962425
196	0x3dfa717d	0.122286774
197	0x3e0c74c6	0.1371642
198	0x3dc6cd1c	0.0970709
199	0xbd51e378	-0.05124232
200	0x3d31ccc5	0.043408174
201	0xbddc7cc2	-0.10765983
202	0x3e0e151f	0.13875245
203	0x3d92a4a9	0.07160313
204	0xbe13b2f9	-0.14423741
205	0x3e19b578	0.15010631
206	0xbcf15505	-0.029459486
207	0xbc4e8425	-0.012604748
208	0xbcb66e07	-0.022269262
209	0xbd979778	-0.07401937
210	0x3bcbd923	0.006220953
211	0xbdc8361b	-0.09775945
212	0xbe2eb72d	-0.17062064
213	0xbd8c2e3c	-0.06844756
214	0xbd2746cd	-0.040839005
215	0x3e17d13f	0.14825915
216	0x3e1e2191	0.15442492
217	0xbe1bdd97	-0.15221249
218	0x3bd7e876	0.006588991
219	0xbd7c1d50	-0.061551392
220	0xbe129aca	-0.1431686
221	0xbd673a93	-0.056452345
222	0xbd874649	-0.06605203
223	0x3d6d89ff	0.05799293
224	0x3b9c3c5f	0.004767939
225	0x3b37a795	0.002802347
226	0xbe08d209	-0.13361372
227	0xbdb0ac08	-0.08626562
228	0x3e091d72	0.13390139
229	0xbe01727e	-0.12641332
230	0x3d323983	0.04351188
231	0x3e8e9e33	0.2785507
232	0x3dff897d	0.12477396
233	0xbd212c0e	-0.039348654
234	0xbe1907d4	-0.14944392
235	0xbcc25790	-0.023723394
236	0xbcdee52c	-0.027208887
237	0x3d910971	0.07081879
238	0xbba074da	-0.0048967423
239	0x3dbcd473	0.09220209
240	0xbd28b1e2	-0.041185267
241	0xbc983dd5	-0.018584171
242	0x3dc966a7	0.098340325
243	0x3dd00441	0.10157061
244	0x3e0b4e93	0.13604192
245	0xbcf1f828	-0.029537275
246	0xbd8da01f	-0.06915306
247	0xbcdb835b	-0.026796034
248	0x3d6b3761	0.05742586
249	0xbcc79ccd	-0.02436676
250	0xbccea447	-0.025224818
251	0xbe50dc6f	-0.20396589
252	0xbdf99014	-0.12185684
253	0x3d471da0	0.048612237
254	0xbcbb1ad6	-0.022839945
255	0x3e6565f8	0.22402179

encoder.node_encoder.mlp_msg.2.bias f4 [16]
0	0xbc129340	-0.00894624
1	0xbcbf77cc	-0.023372553
2	0xbcae24bf	-0.021257756
3	0x3c2b6b69	0.01046262
4	0x3d5665ff	0.052343365
5	0xbcf06c8c	-0.029348634
6	0xbc06f337	-0.008236698
7	0xbb861482	-0.0040918
8	0x3c56fc03	0.013121608
9	0xbca34113	-0.01992849
10	0x3b995b13	0.0046800463
11	0x3af6ac70	0.0018819701
12	0x3bc19824	0.005908029
13	0x3d2a1a96	0.04152926
14	0xbc5b841c	-0.013398197
15	0xbc433750	-0.011915043

encoder.node_encoder.mlp_msg.4.weight f4 [16, 16]
0	0x3d9ac934	0.07557908
1	0x3e42eb2f	0.19035028
2	0xbe6d5641	-0.23177435
3	0xbdfff65c	-0.12498161
4	0xbe19d834	-0.15023881
5	0xbe32ba6d	-0.17453928
6	0x3d0595a4	0.03261341
7	0x3e30f3c4	0.17280489
8	0xbe3fc820	-0.18728685
9	0x3e075491	0.13215853
10	0x3e7f952f	0.24959253
11	0xbe1c6eb7	-0.1527661
12	0x3d380fb2	0.044936843
13	0xbdc7227f	-0.097233765
14	0x3d17499e	0.03693544
15	0xbe06abf6	-0.13151535
16	0x3c51c49a	0.012803221
17	0xbe77bee6	-0.24193916
18	0xbe67fc4d	-0.22654839
19	0x3e5b5f9f	0.21423195
20	0x3d1819d7	0.037134018
21	0xbd98fd11	-0.074701436
22	0xbe0ea506	-0.13930139
23	0x3e1de1f4	0.15418226
24	0xbe165285	-0.14679916
25	0xbe20d3d4	-0.15705806
26	0xbe4d478a	-0.20046821
27	0xbe81ffba	-0.25390416
28	0x3e657117	0.22406422
29	0xbe1d724a	-0.15375629
30	0xbd5601cf	-0.05224782
31	0xbdfb44b4	-0.122689635
32	0x3d10ef7f	0.03538465
33	0x3defc05c	0.117066115
34	0xbe2aee26	-0.16692409
35	0x3e5dc4f3	0.21657161
36	0xbe9ceb73	-0.30648383
37	0x3d73c5f4	0.059514955
38	0xbc7e466b	-0.015519719
39	0xbcffad63	-0.031210607
40	0x3e1579f8	0.14597309
41	0x3e716ce2	0.23576692
42	0x3dc2387c	0.0948343
43	0xbda15b98	-0.07878798
44	0x3e5ce096	0.21570048
45	0x3e050b9f	0.12992714
46	0x3d635f70	0.05551094
47	0xbd47005c	-0.048584327
48	0xbcacc40f	-0.021089582
49	0x3e94cf79	0.2906454
50	0x3b6857f7	0.0035452822
51	0xbb9cf011	-0.0047893603
52	0xbe80bad1	-0.2514253
53	0xbd8ea7b3	-0.0696558
54	0x3e437eae	0.19091293
55	0xbcf72747	-0.030170096
56	0xbc8336c2	-0.016017321
57	0x3df614f0	0.12015712
58	0xbe6574c9	-0.22407831
59	0x3c6be222	0.014397176
60	0xbdd187a5	-0.1023095
61	0x3dc24a21	0.09486795
62	0x3e5bef0a	0.21477905
63	0x3e2d9949	0.16953005
64	0x3e5c7b0c	0.21531314
65	0xbe90b0d7	-0.28259918
66	0xbdb0e953	-0.08638253
67	0x3c04c740	0.0081041455
68	0xbe2ffef1	-0.17187096
69	0x3cc76776	0.024341326
70	0xbe3e5115	-0.18585618
71	0x3d949f47	0.07256942
72	0x3e52972d	0.20565481
73	0xbe7023d8	-0.23451173
74	0x3e2f49f6	0.17118058
75	0x3dc7ecc7	0.097619586
76	0xbe457049	-0.19281115
77	0x3e9715f5	0.2950894
78	0xbe69ae95	-0.22820504
79	0xbe3e66b8	-0.18593872
80	0xbe2493e1	-0.16072036
81	0x3d22f575	0.039784867
82	0x3d2a1af0	0.041529596
83	0xbd79b87c	-0.060966954
84	0xbe89bc94	-0.26901686
85	0x3c200aa2	0.00976816
86	0x3e5c0f3f	0.21490191
87	0x3e572fca	0.21014324
88	0x3def8ba7	0.116965584
89	0x3d7ac4aa	0.06122271
90	0x3da15fe2	0.07879616
91	0xbe35fff3	-0.17773418
92	0x3e0d1c3f	0.13780306
93	0xbe9d3938	-0.30707717
94	0xbd9ee9c2	-0.077594295
95	0xbd479c8b	-0.048733275
96	0x3e13aba9	0.14420952
97	0xbce5ba1f	-0.028042851
98	0xbdb89e23	-0.09014537
99	0xbd2178c2	-0.039421804
100	0xbe5bebc6	-0.21476659
101	0xbd931ff9	-0.07183833
102	0x3d832df4	0.06405249
103	0x3c1d0595	0.00958385
104	0x3a2e4a74	0.00066486676
105	0x3e3dc6ad	0.1853282
106	0xbe1b4b31	-0.15165402
107	0xbde758f0	-0.1129626
108	0x3e846f35	0.25866094
109	0x3db5f089	0.08883769
110	0xbd060c5a	-0.032726623
111	0x3e2b341e	0.167191
112	0x3e0f0504	0.13966757
113	0xbd1bd5e5	-0.038045783
114	0xbdab4a9b	-0.08363839
115	0xbc25ea3d	-0.010126648
116	0x3dd80155	0.10547129
117	0xbc905059	-0.017616438
118	0x3e11718a	0.14203468
119	0xbe79e357	-0.2440313
120	0xbdd7ba6d	-0.10533605
121	0x3e6b989a	0.23007432
122	0x3c07a326	0.008278644
123	0x3d8d0c5c	0.06887123
124	0x3d8cddd7	0.0687825
125	0xbd9cb149	-0.07651002
126	0xbdc76048	-0.09735161
127	0x3dda3622	0.10654856
128	0xbd0fa368	-0.035067946
129	0xbe195155	-0.14972432
130	0x3d34b20e	0.04411512
131	0x3d3680be	0.044556372
132	0x3d52aeb3	0.051436137
133	0xbe585f11	-0.21130015
134	0xbcd1212b	-0.025528511
135	0xbe459571	-0.19295289
136	0x3e1e667d	0.15468784
137	0xbe3ecf04	-0.18633658
138	0x3e3bbfe6	0.18334922
139	0x3db00cbc	0.08596179
140	0xbe3ef728	-0.1864897
141	0x3e4f949c	0.20271534
142	0xbe718410	-0.23585534
143	0xbcb48fce	-0.022041228
144	0xbd5d3093	-0.054001402
145	0xbe8f7587	-0.28019354
146	0x3c09cce1	0.008410663
147	0xbdf29c96	-0.11846273
148	0x3e730471	0.23732163
149	0xbe81c1b0	-0.25343084
150	0x3e478430	0.1948402
151	0x3e007410	0.12544274
152	0x3e5aa3dc	0.2135157
153	0xbe02e720	-0.1278348
154	0xbe287c3e	-0.16453645
155	0xbe4f930c	-0.20270938
156	0x3e58d119	0.21173514
157	0xbd92caa4	-0.07167557
158	0xbd233978	-0.03984973
159	0xbdb2edee	-0.08736788
160	0xbd0cf6c7	-0.034415033
161	0xbe203dc3	-0.1564856
162	0x3e5a8336	0.21339116
163	0xbe522dbc	-0.20525259
164	0x3e55fce8	0.20897257
165	0xbd75741a	-0.059925176
166	0xbdc452ec	-0.095861286
167	0xbd011ba0	-0.031520486
168	0x3da0b050	0.07846129
169	0xb9ffeb23	-0.0004881258
170	0xbe5c05f4	-0.21486646
171	0x3e4d7dc2	0.20067504
172	0x3e8a582c	0.27020395
173	0x3ddb9867	0.10722428
174	0x3e854078	0.26025748
175	0x3dd7e786	0.105422065
176	0xbe0182e1	-0.12647583
177	0xbe0da75f	-0.13833378
178	0xbe5a7329	-0.21332993
179	0xbe40eaa8	-0.18839514
180	0xbdf91410	-0.1216203
181	0x3e4c16b9	0.19930543
182	0xbda93df5	-0.082637705
183	0x3c186a84	0.009302739
184	0x3b87c20f	0.0041430066
185	0xbdf735cf	-0.1207081
186	0x3bf3b50d	0.0074373544
187	0x3e8be97e	0.27326578
188	0x3e5cb50c	0.21553439
189	0x3e1fda80	0.15610695
190	0xbb98cca9	-0.0046630693
191	0x3d2f4d99	0.042798612
192	0x3e6921f8	0.22766864
193	0xbe190e14	-0.14946777
194	0xbddd1bcc	-0.107963175
195	0x3e56ed3e	0.20988938
196	0x3dadc390	0.08484566
197	0xbe6872a2	-0.22699979
198	0x3e49308d	0.19647427
199	0x398c9152	0.00026811153
200	0x3e0a9394	0.13532859
201	0xbe86d926	-0.26337546
202	0x3c0a8637	0.008454851
203	0x3df52401	0.11969758
204	0xbd5a9b48	-0.053370744
205	0xbdeda2c5	-0.116033114
206	0x3e440be1	0.19145156
207	0x3d9c24d1	0.0762421
208	0x3ca4f81a	0.020137835
209	0x3dfd0e81	0.12356282
210	0x3c85d6d9	0.016337799
211	0x3e36aca3	0.17839293
212	0xbdd37cc6	-0.10326533
213	0xbdc468b8	-0.09590286
214	0x3deded6f	0.116175525
215	0x3dc8040e	0.09766398
216	0x3dc34e11	0.09536374
217	0x3b83ead0	0.0040257946
218	0x3b8de948	0.004330788
219	0x3c090514	0.008363027
220	0x3da92dbf	0.082606785
221	0xbe83b030	-0.25720358
222	0xbe69204c	-0.22766227
223	0x3df9923c	0.12186095
224	0xbe75cf0b	-0.24004762
225	0x3d120482	0.03564883
226	0x3d9b5653	0.075848244
227	0x3c8f7f0b	0.017516633
228	0x3deed184	0.11661056
229	0x3dc09e71	0.0940522
230	0x3da4c562	0.0804546
231	0xbd0c3548	-0.0342305
232	0x3d91c4a4	0.07117584
233	0x3e05365b	0.13009016
234	0x3df97fa2	0.12182547
235	0xbe4a3be7	-0.19749413
236	0xbe06b126	-0.13153514
237	0xbe83b8b5	-0.25726858
238	0xbda4498d	-0.08021841
239	0x3e44ae06	0.1920701
240	0xbe7d59f5	-0.24741347
241	0xbe57e861	-0.2108474
242	0x3e30a733	0.17251281
243	0xbe11141e	-0.1416783
244	0x3e3d5ea1	0.1849313
245	0x3d68cbfa	0.056835152
246	0x3d600312	0.054690428
247	0x3e5c1d2e	0.21495506
248	0xbe829342	-0.25502974
249	0x3e3f6992	0.18692616
250	0x3e1d1ebd	0.15343757
251	0xbe474082	-0.19458202
252	0x3dc501fb	0.09619518
253	0xbda8fc57	-0.08251255
254	0xbdbd2d7b	-0.0923719
255	0xbcc54e45	-0.024085173

encoder.node_encoder.mlp_msg.4.bias f4 [16]
0	0x3c07a5c4	0.008279268
1	0x3d0023b3	0.031284045
2	0xbd12d26d	-0.03584521
3	0xba8e8bc9	-0.00108754
4	0x3c8b0549	0.016970294
5	0xbcbf7a76	-0.023373824
6	0x3c5b60c0	0.013389766
7	0x3c13d62b	0.00902323
8	0x3cf708ef	0.030155627
9	0x3d0893b8	0.033344
10	0xbca67f63	-0.020324415
11	0xbcb8077d	-0.022464508
12	0x3d272b57	0.040812816
13	0xbc82f524	-0.015986033
14	0xbbd321e8	-0.006443251
15	0xbd24f453	-0.04027207

encoder.node_encoder.mlp_update.0.weight f4 [32, 16]
0	0xbcfe508d	-0.031044269
1	0x3e851566	0.25992888
2	0xbdaaf71e	-0.08347915
3	0xbe2a362d	-0.16622229
4	0x3d8089a4	0.06276253
5	0xbdb9a104	-0.090639144
6	0xbd41c6d2	-0.04730875
7	0x3e76916f	0.24078916
8	0x36850511	3.9642987e-06
9	0x3e7d682f	0.24746774
10	0x3c623758	0.01380714
11	0xbe0b2446	-0.13588056
12	0x3e721d26	0.23643932
13	0xbe06c68b	-0.13161676
14	0xbba5ff9b	-0.005065871
15	0x3cc16a04	0.023610123
16	0x3daa7323	0.08322742
17	0xbe8164af	-0.25272128
18	0xbd7ff85f	-0.062492725
19	0xbd2995bb	-0.04140256
20	0x3e561fdf	0.20910595
21	0x3cd50ce3	0.026007121
22	0x3e2c9c0e	0.16856405
23	0x3e295bba	0.16538897
24	0xbd87f240	-0.066380024
25	0xbd65021e	-0.055910222
26	0x3e45e983	0.19327359
27	0xbe2a524a	-0.16632953
28	0xbe590a93	-0.2119544
29	0xbd5218b3	-0.051293086
30	0xbd9e4f15	-0.077299275
31	0xbd81824b	-0.063236795
32	0x3e4cd6ef	0.20003866
33	0xbda275a3	-0.07932594
34	0xbe6113e6	-0.21980247
35	0xbda2a8c3	-0.07942345
36	0x3e4cafd2	0.19988945
37	0xbd73faf1	-0.05956549
38	0xbda2c19a	-0.07947083
39	0x3df5ab2f	0.11995541
40	0xbbd7477f	-0.0065698023
41	0xbe839ca3	-0.25705442
42	0x3e6661da	0.22498265
43	0x3e2782eb	0.16358535
44	0x3e2a31d2	0.16620567
45	0x3daa8bdd	0.08327458
46	0xbc2d5de5	-0.010581468
47	0xbdc01067	-0.093781285
48	0x3dd788c2	0.10524131
49	0xbc8460d0	-0.016159445
50	0xbd32b761	-0.043631915
51	0xbe7f2d1d	-0.24919553
52	0xbde166d3	-0.1100594
53	0x3d50fab0	0.051020324
54	0xbd0f3498	-0.034962267
55	0xbdf7d012	-0.12100233
56	0xbe396fc3	-0.1810904
57	0x3e523341	0.20527364
58	0xbd507a53	-0.050897907
59	0xbe949457	-0.29019424
60	0x3e922f0c	0.2855152
61	0x3dd198ac	0.10234198
62	0xbe188a53	-0.14896517
63	0xbe581333	-0.21101074
64	0x3e4a5c02	0.1976166
65	0xbc936650	-0.017993122
66	0xbe825eda	-0.2546299
67	0x3e284756	0.16433463
68	0xbc8695ec	-0.01642891
69	0xbd01c668	-0.031683356
70	0xbdbabb09	-0.091177054
71	0xbe3ddf1a	-0.18542138
72	0xbe30d738	-0.172696
73	0xbd343dac	-0.044004127
74	0xbe49fc9b	-0.19725268
75	0x3e91b251	0.28456357
76	0xbc77ed2a	-0.015132228
77	0xbe23483d	-0.15945525
78	0x3df59101	0.11990548
79	0xbe950c8e	-0.2911114
80	0xbe1976f5	-0.14986785
81	0x3e0007a6	0.12502918
82	0xbe8118de	-0.25214285
83	0x3db77bae	0.08959137
84	0x3d4cb79d	0.049979795
85	0xbe93603c	-0.28784359
86	0xbe79fe85	-0.24413498
87	0x3da63ae6	0.08116703
88	0x3e2a2b5b	0.16618101
89	0xbcdb2670	-0.026751727
90	0xbe61ccb6	-0.22050747
91	0xbe46396e	-0.19357845
92	0x3d5c5e3a	0.0538008
93	0xbd18361c	-0.037160978
94	0x3ced8c49	0.028997557
95	0xbbead64a	-0.0071666585
96	0xbd992f3a	-0.07479711
97	0x3db382da	0.08765192
98	0x3e4998e8	0.19687235
99	0x3e544b66	0.20731887
100	0x3e7b5db5	0.24547465
101	0xbe1f7766	-0.1557289
102	0xbd1970c8	-0.037461072
103	0x3b2c9369	0.002633298
104	0x3db30c6d	0.087426044
105	0x3dc2be3a	0.09508939
106	0xbcbfb3c2	-0.023401145
107	0xbe22f00a	-0.1591188
108	0xbe36b52f	-0.17842554
109	0x3e2ee437	0.17079245
110	0xbca5c58a	-0.020235796
111	0xbdb833fa	-0.08994289
112	0xbe3ea78e	-0.18618605
113	0xbe08dab2	-0.13364676
114	0xbbf8e617	-0.007595788
115	0x3decc159	0.11560316
116	0xbdb40869	-0.087906666
117	0xbe1afa31	-0.15134503
118	0x3e5d419d	0.2160706
119	0xbdfc767f	-0.12327289
120	0xbe2911b6	-0.16510662
121	0xbd236bef	-0.039897855
122	0x3e8a5277	0.2701604
123	0x3d551eb1	0.052031223
124	0x3bbb6788	0.005719129
125	0xbdc0c5a7	-0.09412699
126	0x3e46333d	0.19355483
127	0xbe2e7450	-0.17036557
128	0x3e57c4eb	0.21071212
129	0x3d7009d9	0.05860314
130	0x3e1a34ca	0.150592
131	0x3d074853	0.033027958
132	0xbe615fb6	-0.22009167
133	0x3e8c77fe	0.27435297
134	0x3db4c48b	0.0882655
135	0xbe556b4b	-0.2084171
136	0xbe80916c	-0.25110948
137	0xbd81c640	-0.06336641
138	0x3e40f00c	0.1884157
139	0xbdebc097	-0.11511343
140	0x3e58ddf2	0.21178415
141	0xbd81f280	-0.06345081
142	0xbe8394d1	-0.25699475
143	0x3e3c4064	0.18383938
144	0xbdef08cc	-0.116716
145	0xbc680136	-0.014160445
146	0xbd83d61c	-0.064373225
147	0xbc9bd741	-0.01902354
148	0xbe52cf59	-0.2058691
149	0xbe514fde	-0.20440623
150	0x3db4dd8b	0.088313185
151	0xbd588528	-0.052861363
152	0xbe01fa7c	-0.12693208
153	0xbb994523	-0.004677431
154	0xbe6a7694	-0.22896796
155	0x3d4500a6	0.04809632
156	0x3dfbd9f0	0.12297428
157	0x3e8f2808	0.2796023
158	0xbe5bc9ed	-0.21463747
159	0xbc8c3324	-0.01711423
160	0x3e2d77a5	0.16940172
161	0x3e6cc6dc	0.23122734
162	0xbd9b4a1c	-0.075824946
163	0x3e12d0c6	0.14337453
164	0x3d5a3b04	0.053278938
165	0x3e63afdd	0.22235055
166	0xbe510019	-0.20410194
167	0x3e2b1b81	0.1670971
168	0xbde24324	-0.11047962
169	0xbe374c56	-0.17900214
170	0x3d843b12	0.06456579
171	0x3e65292c	0.22378987
172	0xbe44c65a	-0.1921629
173	0x3e4cbf6d	0.19994898
174	0xbd456b6e	-0.048198156
175	0x3e181ce9	0.14854778
176	0x3e1d9ec1	0.15392591
177	0x3d1bbba7	0.038020756
178	0xbe645db7	-0.22301374
179	0xbd9ceb97	-0.07662123
180	0x3ddbc5df	0.107311
181	0xbe86b739	-0.26311663
182	0x3dcae2d1	0.09906543
183	0xbe02f8e2	-0.12790254
184	0xbd28a0cc	-0.041168973
185	0x3d7b4b07	0.06135085
186	0xbe84aa3c	-0.2591113
187	0xbe0e6633	-0.13906173
188	0x3dcd295b	0.100176536
189	0xbea80578	-0.32816672
190	0x3e202c37	0.15641867
191	0xbe87ded1	-0.26537183
192	0x3db326e6	0.08747654
193	0x3d8cfa85	0.0688372
194	0x3e4a123d	0.1973352
195	0xbe540c09	-0.20707716
196	0xbd42ebd3	-0.04758818
197	0x3e3d3372	0.18476656
198	0x3e1d4501	0.15358354
199	0xbe5ddbfc	-0.21665949
200	0xbdef1833	-0.116745375
201	0x3e07340b	0.13203447
202	0x3d0bc60f	0.03412443
203	0xbe4585d6	-0.19289336
204	0xbe482549	-0.19545473
205	0xbe3f57ce	-0.18685839
206	0xbe679a34	-0.22617418
207	0xbbe914fd	-0.0071130977
208	0xbe17679d	-0.14785619
209	0xbe808109	-0.25098446
210	0x3e010344	0.12598902
211	0x3e21b765	0.15792616
212	0xbe2777bb	-0.16354267
213	0x3dbb5176	0.09146397
214	0xbb0341a5	-0.002002814
215	0x3dfff028	0.12496978
216	0xbe4e4330	-0.20142817
217	0xbc89003c	-0.016723745
218	0x3e80809f	0.2509813
219	0x3e42934b	0.190015
220	0xbe83fab2	-0.25777203
221	0x3c43ec14	0.011958141
222	0x3ad2b597	0.0016075847
223	0xbd484061	-0.04888952
224	0xbe19de5d	-0.15026231
225	0xbe3077cd	-0.172332
226	0x3e2489eb	0.16068237
227	0xbd69e6de	-0.057104938
228	0xbca204b1	-0.019777628
229	0x3dcd71c0	0.10031462
230	0xbe1d443c	-0.1535806
231	0x3a2567c1	0.0006309711
232	0x3e1e19f9	0.15439595
233	0xbe2207b1	-0.15823247
234	0x3d8d6cd8	0.06905526
235	0x3bd1b972	0.0064002806
236	0x3e15cd3d	0.14629073
237	0x3e7706e0	0.24123716
238	0x3d054c63	0.03254355
239	0x3c37f7f9	0.011228555
240	0xbe3ed7ab	-0.18636958
241	0x3d9bddb3	0.07610645
242	0x3e8a4a4b	0.27009806
243	0xbdb6d619	-0.08927555
244	0xbe8f0a96	-0.27937764
245	0x3e86f816	0.2636115
246	0xbd363d60	-0.044492126
247	0x3d676ad1	0.056498352
248	0xbddd6b04	-0.10811427
249	0x3e005c73	0.12535267
250	0x3e7926a5	0.24331148
251	0x3e3a2daa	0.18181482
252	0xbdf73974	-0.12071505
253	0x3e3cfc35	0.18455584
254	0x3dcfc956	0.10145824
255	0x3d637873	0.05553479

encoder.node_encoder.mlp_update.0.bias f4 [32]
0	0x3bbbbb34	0.0057291035
1	0x3c916931	0.017750354
2	0xbcbd792c	-0.023129068
3	0x3ba9e5bf	0.0051848586
4	0x3bd0a4df	0.0063673104
5	0xbbbe57f5	-0.005808825
6	0x3c9c4c84	0.019079454
7	0x3ccef623	0.025263852
8	0x3d0a6b26	0.03379359
9	0xbd052984	-0.032510296
10	0x3cb01b8d	0.021497512
11	0xbc440c85	-0.0119658755
12	0x3d1b9104	0.037980095
13	0xbb2f5082	-0.0026750867
14	0xbcb033e4	-0.021509118
15	0x3c266113	0.01015498
16	0xbc8ddb60	-0.01731652
17	0xbc0efecc	-0.0087277405
18	0x3d0d75b3	0.034536075
19	0x3cb6c67b	0.02231144
20	0xbc4b73a8	-0.012417711
21	0xbc863d42	-0.016386632
22	0x3c48ab9a	0.012247944
23	0x3b148b28	0.0022665951
24	0xbbe3ed56	-0.006955783
25	0xbc644382	-0.013932111
26	0x3c610893	0.013734954
27	0x3cbe5d6d	0.023237908
28	0xbb1dbf57	-0.0024070346
29	0x3ca9079c	0.020633511
30	0xbb46e2f0	-0.0030347668
31	0xbca95b11	-0.020673307
